{"class_name": "Sequential", "config": [{"class_name": "Merge", "config": {"layers": [{"class_name": "Sequential", "config": [{"class_name": "Embedding", "config": {"input_length": 450, "W_constraint": null, "name": "embedding_1", "activity_regularizer": null, "trainable": true, "init": "uniform", "input_dtype": "int32", "mask_zero": false, "batch_input_shape": [null, 450], "W_regularizer": null, "dropout": 0.5, "input_dim": 100000, "output_dim": 100}}, {"class_name": "Convolution1D", "config": {"input_length": null, "W_constraint": null, "b_constraint": null, "name": "convolution1d_1", "activity_regularizer": null, "trainable": true, "filter_length": 3, "init": "uniform", "nb_filter": 250, "input_dim": null, "subsample_length": 1, "b_regularizer": null, "W_regularizer": null, "activation": "relu", "border_mode": "valid"}}, {"class_name": "Lambda", "config": {"function": "c\u0001\u0000\u0000\u0000\u0001\u0000\u0000\u0000\u0004\u0000\u0000\u0000C\u0000\u0000\u0000s\u0013\u0000\u0000\u0000t\u0000\u0000j\u0001\u0000|\u0000\u0000d\u0001\u0000d\u0002\u0000\u0083\u0001\u0001S(\u0003\u0000\u0000\u0000Nt\u0004\u0000\u0000\u0000axisi\u0001\u0000\u0000\u0000(\u0002\u0000\u0000\u0000t\u0001\u0000\u0000\u0000Kt\u0003\u0000\u0000\u0000max(\u0001\u0000\u0000\u0000t\u0001\u0000\u0000\u0000X(\u0000\u0000\u0000\u0000(\u0000\u0000\u0000\u0000s*\u0000\u0000\u0000/home/slhome/xyw00/Courses/NLP/utils/nn.pyt\u0006\u0000\u0000\u0000max_1d\u0013\u0000\u0000\u0000s\u0002\u0000\u0000\u0000\u0000\u0001", "name": "lambda_1", "trainable": true, "function_type": "lambda", "arguments": {}, "output_shape": [250], "output_shape_type": "raw"}}]}, {"class_name": "Sequential", "config": [{"class_name": "Embedding", "config": {"input_length": 450, "W_constraint": null, "name": "embedding_2", "activity_regularizer": null, "trainable": true, "init": "uniform", "input_dtype": "int32", "mask_zero": false, "batch_input_shape": [null, 450], "W_regularizer": null, "dropout": 0.5, "input_dim": 100000, "output_dim": 100}}, {"class_name": "Convolution1D", "config": {"input_length": null, "W_constraint": null, "b_constraint": null, "name": "convolution1d_2", "activity_regularizer": null, "trainable": true, "filter_length": 3, "init": "uniform", "nb_filter": 250, "input_dim": null, "subsample_length": 1, "b_regularizer": null, "W_regularizer": null, "activation": "relu", "border_mode": "valid"}}, {"class_name": "Lambda", "config": {"function": "c\u0001\u0000\u0000\u0000\u0001\u0000\u0000\u0000\u0004\u0000\u0000\u0000C\u0000\u0000\u0000s\u0013\u0000\u0000\u0000t\u0000\u0000j\u0001\u0000|\u0000\u0000d\u0001\u0000d\u0002\u0000\u0083\u0001\u0001S(\u0003\u0000\u0000\u0000Nt\u0004\u0000\u0000\u0000axisi\u0001\u0000\u0000\u0000(\u0002\u0000\u0000\u0000t\u0001\u0000\u0000\u0000Kt\u0003\u0000\u0000\u0000max(\u0001\u0000\u0000\u0000t\u0001\u0000\u0000\u0000X(\u0000\u0000\u0000\u0000(\u0000\u0000\u0000\u0000s*\u0000\u0000\u0000/home/slhome/xyw00/Courses/NLP/utils/nn.pyt\u0006\u0000\u0000\u0000max_1d\u0013\u0000\u0000\u0000s\u0002\u0000\u0000\u0000\u0000\u0001", "name": "lambda_2", "trainable": true, "function_type": "lambda", "arguments": {}, "output_shape": [250], "output_shape_type": "raw"}}]}], "name": "merge_1", "concat_axis": -1, "mode_type": "raw", "dot_axes": [-1, -1], "mode": "sum", "output_shape": null, "output_shape_type": "raw"}}, {"class_name": "Dense", "config": {"W_constraint": null, "b_constraint": null, "name": "dense_1", "activity_regularizer": null, "trainable": true, "init": "glorot_uniform", "bias": true, "input_dim": null, "b_regularizer": null, "W_regularizer": null, "activation": "linear", "output_dim": 300}}, {"class_name": "Dropout", "config": {"p": 0.5, "trainable": true, "name": "dropout_1"}}, {"class_name": "Dense", "config": {"W_constraint": null, "b_constraint": null, "name": "dense_2", "activity_regularizer": null, "trainable": true, "init": "glorot_uniform", "bias": true, "input_dim": null, "b_regularizer": null, "W_regularizer": null, "activation": "linear", "output_dim": 11}}, {"class_name": "Activation", "config": {"activation": "softmax", "trainable": true, "name": "activation_1"}}]}